src/if5000_model1.pth (torch, 581207 bytes, 6 tensors)

conv1.weight f4 [32, 3, 3, 3]
000000 dc 57 c2 bc 7e 05 ad 3d 03 a5 2a be 73 5c 1f be
       -0.023723535 0.08448313 -0.1666451 -0.1556261
000010 36 e1 a5 bd ce f3 3c 3d 5c 43 f7 bb 0a 42 1c 3e
       -0.08099596 0.046130948 -0.0075458717 0.15259567
000020 45 fa 35 bc fb b5 c6 3c 40 59 a7 bd 33 ac 4c bd
       -0.011107032 0.024256697 -0.0817132 -0.04996891
000030 ea 38 4d be fc 0a 0c be 14 53 b4 bd c4 86 46 3b
       -0.20041242 -0.13676065 -0.088049084 0.003029273
000040 83 a0 99 3d 79 25 f4 3d d3 be 05 be e0 37 a8 bd
       0.07501318 0.1192121 -0.13061075 -0.08213782
000050 c2 eb a1 3d ff 47 2b 3e a3 1a c0 bc 74 03 25 3e
       0.07906295 0.16726683 -0.023450201 0.16114599
000060 f0 ff 05 bc f5 6c 4c 3d 5e 2e 52 3e 73 e5 41 be
       -0.008178696 0.049908597 0.205255 -0.18935184
000070 a6 c8 03 be 93 1b 62 bd cd 1c ae bd 39 84 20 3e
       -0.1286951 -0.055202078 -0.08501587 0.15675439
000080 23 4c 0c be 71 6b c7 bd 14 e6 16 be ba 5c 46 be
       -0.13700919 -0.0973729 -0.14736205 -0.1937131
000090 a2 b9 ee bd 67 19 28 3e 6b aa ad 3d ba 9a b8 3d
       -0.116565004 0.1641594 0.0847977 0.09013887
0000a0 68 7c ec 3b c9 8d d5 bd eb 40 f6 3c 15 0e 3e be
       0.007216979 -0.10427434 0.030060252 -0.1856006
0000b0 5c 63 15 be 0a f6 e1 bd c5 71 e9 3d b9 1d d8 3d
       -0.14588684 -0.11033256 0.11398653 0.10552544
0000c0 00 09 c3 bd 14 eb 7f bc fa 36 e5 3d 9f 48 3b 3e
       -0.09523201 -0.015620012 0.111921266 0.18289421
0000d0 fe e7 85 3d ff 5a 60 3c 8f d0 13 3e 8d 1a ca bd
       0.065383896 0.01369357 0.14435028 -0.098683454
0000e0 9a d3 3c 3d 5d cb 11 be fa 95 05 be 20 16 d9 bd
       0.046100236 -0.14237733 -0.13045493 -0.10599923
0000f0 5a 4c ae 3d 56 78 84 3d cd 8d 08 be 36 e4 ab 3d
       0.08510657 0.06468265 -0.13335343 0.08393137
000100 73 c8 07 3e 4d 2e f2 b7 d2 23 d0 3c e7 e2 79 3d
       0.13260059 -2.8870209e-05 0.025407705 0.061007407
000110 45 f3 02 3e ad fb 45 3e 80 dc 17 be b7 c0 9a bd
       0.12788112 0.19334288 -0.14830208 -0.07556289
000120 93 96 be 3d 9b f7 35 3e f8 9d 3b 3e d0 6a 35 3e
       0.093060635 0.17770235 0.18321979 0.17716527
000130 a5 e3 31 3d 9b 07 2e be 6c b7 6b 3c d7 ae 06 be
       0.04342999 -0.16995089 0.014386993 -0.13152634
000140 8f c2 46 be e4 e3 3b 3e da 8d 36 3e cc 40 3d be
       -0.19410156 0.18348652 0.1782755 -0.1848175
000150 84 5a 3a 3d 29 a6 52 bd a8 03 5d bd 17 fa a9 bd
       0.04549648 -0.051427994 -0.053958565 -0.08299654
000160 f6 9a ae 3d 9b 45 10 be 80 68 ec 3d f3 ad 25 3e
       0.0852565 -0.14089052 0.11543369 0.16179638
000170 fd 02 37 3e c9 b4 ea 3d 8e 0f 35 be 76 82 ea bd
       0.17872234 0.11460263 -0.17681715 -0.11450665
000180 27 39 09 3e d2 58 b0 3d aa ef 12 be 4c ed fb bd
       0.13400708 0.08610691 -0.14349237 -0.1230112
000190 b9 28 43 3e f8 33 fd 3d d1 56 bf bd 47 ee 9f bd
       0.19058503 0.12363428 -0.09342731 -0.0780912
0001a0 68 b3 59 be 4f ff 60 bc 17 1b 14 be 73 22 31 be
       -0.21259844 -0.013732745 -0.14463459 -0.17298298
0001b0 93 a1 02 bd 44 d3 66 3b ab 85 d0 bd ef 32 bc 3d
       -0.03189237 0.003522114 -0.10181745 0.09189402
0001c0 00 f7 0f be 40 19 1b 3e e5 e9 de 3d 58 c3 3a be
       -0.14059067 0.15146351 0.108844556 -0.1823858
0001d0 d2 4a 8d bd c5 82 f8 bc 34 cd 70 bc 8d 6d aa 3b
       -0.068990365 -0.030335793 -0.014697362 0.0052010478
0001e0 af b5 12 3d 90 e2 ec bc c6 03 0a be d9 95 54 3d
       0.0358178 -0.028916627 -0.13478002 0.05190072
0001f0 95 8d 61 be f6 37 1d be 8e 18 5f bd 6c a1 d4 bd
       -0.22026666 -0.15353379 -0.054466777 -0.10382351
000200 b6 83 9a bd b5 1d 27 be e9 45 45 bd e5 05 12 3d
       -0.07544653 -0.16319926 -0.048162375 0.035650153
000210 ff 04 05 be 42 0d 47 bc 15 6b 08 3e 95 cd 83 3d
       -0.12990187 -0.012149157 0.13322099 0.06435696
000220 1f ab 81 3d 5f 5e 38 3d eb 6e 96 3d 74 5b 50 3e
       0.06331467 0.045011874 0.07345375 0.20347387
000230 4f 71 77 3e d7 41 5b 3e 2b cf 7f 3e cb 32 91 3d
       0.24164318 0.21411835 0.24981372 0.07089766
000240 2f 15 6c be 42 46 39 be 47 7c 0e 3d 53 5d e2 bd
       -0.23054956 -0.18093207 0.03478649 -0.110529564
000250 80 7f 3a be 94 f4 80 be f6 3b 81 be 44 68 86 be
       -0.182127 -0.25186598 -0.2524106 -0.26251423
000260 cf 5f ee bd 9f 64 06 3e 2b 7d da 3d 6b 23 37 be
       -0.11639368 0.13124321 0.10668405 -0.17884605
000270 f8 dd d7 3d 97 61 20 be 9b b0 61 bd d9 b3 99 bd
       0.10540384 -0.15662228 -0.055100065 -0.07505006
000280 9c 3f 66 bd f4 29 02 bd 59 cd 34 be e8 2a 25 be
       -0.056213006 -0.03177829 -0.17656459 -0.16129649
000290 82 88 94 bc 4e 1a a6 3b 32 7d 9a bd 07 d8 a9 3d
       -0.018131498 0.0050690537 -0.0754341 0.08293157
0002a0 5b 98 39 be a8 d9 94 3a 8d b6 2d 3e e4 d9 8e bd
       -0.18124525 0.001135637 0.16964169 -0.06975153
0002b0 0b 61 44 3e 5c 9b be 3d 7f 42 22 be 7d 29 16 3e
       0.19177644 0.09306976 -0.15845679 0.14664264
0002c0 84 6d d2 39 d9 2e a4 bd 90 a0 39 3e 56 12 12 be
       0.00040135917 -0.08016748 0.18127656 -0.14264807
0002d0 fd 1d 07 bc cc 81 83 bd 66 27 f2 3d 93 6f 04 3d
       -0.008246896 -0.06421241 0.11823921 0.032332968
0002e0 20 cf 9c 3d 95 12 4e 3d 16 c0 97 bd 93 06 59 bd
       0.076566935 0.05031069 -0.07409684 -0.052984785
0002f0 e2 d1 3b be 3b 0e 06 3e 69 d8 36 3e 8c b8 20 3e
       -0.18341783 0.13091366 0.17855991 0.15695399
000300 e8 c9 ee bd 86 d1 c0 3c 9b bf f4 bd d8 3d bc bd
       -0.11659604 0.023537409 -0.11950608 -0.09191483
000310 05 23 c0 bd 74 bd af 3d a2 36 00 be 7a ee 91 bc
       -0.093816794 0.08581057 -0.12520841 -0.01781391
000320 50 01 07 bc b0 19 d6 3d 55 c4 30 be 2e 2e 23 be
       -0.008240059 0.10454118 -0.17262395 -0.15935585
000330 bf ee 0d be ad 9d e8 3d a5 9a b9 bd 26 ec 26 3e
       -0.13860606 0.11358199 -0.09062699 0.16301021
000340 61 e6 86 3d f2 29 89 3c 51 f2 60 bc 32 9e 75 bd
       0.0658691 0.016743634 -0.013729648 -0.05996532
000350 86 a3 d3 3a af 86 86 bd e5 75 7d bc 4b df 1b 3c
       0.0016146756 -0.065686576 -0.015470003 0.009513686
000360 2b 2e 04 be 76 4a bf bd ad d5 3d 3e b8 3a 1a be
       -0.12908237 -0.09340374 0.18538542 -0.15061462
000370 76 73 10 3b 97 0e 64 3e 47 f0 c8 3d 4b 3b 0d 3d
       0.0022041476 0.2227119 0.09811454 0.034480374
000380 e0 55 12 be 8d bc cd 3d 1c 7b 18 be be 33 2c bd
       -0.14290571 0.10045729 -0.14890712 -0.042041533
000390 81 3e 9e bd 0a 79 00 bd 9d 3e 85 3c 59 3f 2f 3e
       -0.077267654 -0.03136543 0.016265208 0.17114009
0003a0 2f e3 12 3d e5 49 35 3e 0e d7 cc 3d 91 a8 20 be
       0.03586119 0.1770397 0.10001956 -0.15689303
0003b0 49 2d 96 3d 10 6d 2f be 3a 56 de bd 82 73 31 3d
       0.07332856 -0.17131448 -0.1085629 0.043323047
0003c0 fd 61 53 3d db ff 06 3e 61 69 ae bd 34 bf ea bb
       0.05160712 0.13183539 -0.08516193 -0.0071639065
0003d0 74 b3 b8 3d 25 12 46 be 8a 45 06 3e c4 20 27 be
       0.09018603 -0.19342859 0.13112465 -0.16321093
0003e0 64 7f fc bb 23 6f 1d bd 25 cb de bd 8a 2a 88 3c
       -0.007705616 -0.038436066 -0.108785905 0.016621847
0003f0 3c ad 11 3e 6b b0 9c bd 40 3d 0a be 8c 65 b8 bd
       0.1422624 -0.076508366 -0.13499928 -0.090037435

conv1.bias f4 [32]
000000 b7 a9 7c 3e 1b b9 74 bd 1d 14 01 3c 14 2f da bd
       0.24674116 -0.059746843 0.007878331 -0.10653511
000010 9b bd 9d bc 9c 6b a6 3b 1c 7f 82 3d e9 28 0f ba
       -0.01925545 0.005078746 0.063719004 -0.0005461113
000020 db 45 11 be 14 08 12 3d a4 14 84 3d 5c d4 4f 3d
       -0.14186804 0.035652235 0.064492494 0.05073963
000030 90 0b 4c 3e 8e 42 20 3e e1 47 a1 bd b9 a8 5b bd
       0.19926286 0.15650389 -0.07875038 -0.053627703
000040 a5 88 81 bd 60 38 17 be 57 5e 0e be 19 3b 22 3e
       -0.06324891 -0.14767599 -0.13903175 0.15842856
000050 b3 bb eb 3d 59 d2 0a 3d 85 a6 07 3e 89 1a 1e be
       0.1151041 0.03389201 0.13247116 -0.1543981
000060 40 75 8a 3d 81 eb 49 3e 3f d5 af bd 60 0b 23 3e
       0.06760645 0.19718744 -0.08585595 0.15922308
000070 d1 4d fb 3c 2e fc 33 3e d3 ac 88 bd 1b c5 c6 3d
       0.030676754 0.17576668 -0.066735886 0.09705564

conv2.weight f4 [64, 32, 3, 3]
000000 12 aa 53 bd 60 b1 99 ba 0d 7f d0 3c 2e 5d c0 3c
       -0.051675864 -0.0011725836 0.025451208 0.023481932
000010 c4 38 6c 3d 64 a2 85 3d 40 09 78 3d d9 24 3c 3d
       0.057671323 0.06525114 0.060555696 0.04593358
000020 c3 25 3b 3d 88 b1 f2 bb bd 3d 3b bd 51 6b b1 bc
       0.04569031 -0.0074064173 -0.045713175 -0.021657618
000030 34 8f cb bb 0f 69 03 bd 9d cc f6 3c 0e 45 ac 3c
       -0.0062121395 -0.032082614 0.030126864 0.021029022
000040 be f2 12 3c b1 a5 58 3c d8 68 58 3d 98 ff bc 3c
       0.008969007 0.013223098 0.05283436 0.023071095
000050 7a 9c 50 bd bb 61 2f bd 97 f4 ce 3c 15 ee 06 3c
       -0.050930478 -0.042817812 0.025263114 0.008235474
000060 f2 b9 ee 3c 4d f2 6f bd 96 eb 58 bd e3 19 2d 3d
       0.0291414 -0.058580685 -0.052959047 0.042261016
000070 7b d0 34 3d fc 93 4b bd 60 38 d5 3c 80 2f 33 bd
       0.044144135 -0.049701676 0.026027858 -0.04374647
000080 b7 32 3f 3d 9f 20 ab 3c 78 95 73 3d 00 06 68 bd
       0.046679225 0.020889578 0.059468716 -0.056646347
000090 a4 cc 4e bd b3 e1 3f 3d d7 38 71 3d 6a b5 30 3d
       -0.05048813 0.046846103 0.058892097 0.04314176
0000a0 80 fc 39 3d e2 da 3c bd fd 0f 42 3d f2 9b 59 bd
       0.04540682 -0.04610718 0.04737853 -0.053127237
0000b0 98 37 5f 3c ee 82 f2 bc e5 4a 72 bc 2b 79 97 3c
       0.013624094 -0.029603448 -0.014788364 0.018490395
0000c0 c5 d4 80 bc ee c1 fe ba 8e 7f 4d bd e2 47 4e bd
       -0.015726456 -0.0019436458 -0.050170474 -0.05036152
0000d0 d2 09 df 3c 54 aa b0 bc 42 35 0c bd 15 9a b4 bc
       0.027226362 -0.021565594 -0.034230478 -0.022046128
0000e0 25 26 39 bd 38 70 3a bd 8b bb 18 3d 9c 4c 03 3d
       -0.045202393 -0.045517176 0.03728823 0.032055482
0000f0 68 41 19 3c fc ab f6 bc a5 44 a8 3c 5b c9 c4 3b
       0.009353973 -0.030111305 0.020540545 0.0060054488
000100 17 b5 20 bd 01 7f 71 3c 19 f2 63 3d 23 b5 66 bd
       -0.0392352 0.014739753 0.055650804 -0.05632509
000110 c8 03 6d bd 35 fa 10 3c 83 2d 38 3d 19 0b 12 bd
       -0.057864934 0.0088487165 0.04496528 -0.035655115
000120 fd 6d 4f 3c 75 b9 27 3d 66 e1 a0 3c 86 fb 61 3c
       0.012660501 0.04094835 0.019638728 0.013792878
000130 3e 8a 7b 3d 1a 55 29 3d 59 7e 01 bd 56 d0 ec 3b
       0.061411135 0.041340925 -0.031614635 0.007226984
000140 22 5b fb 3c 3b 1e 5c 3d 9b 04 66 bd 5a 65 09 3d
       0.030683104 0.053739768 -0.056156736 0.033543922
000150 0c e4 81 bc 1f 53 68 bd 54 88 5c 3c 3f 87 01 bd
       -0.015855812 -0.056719895 0.0134602375 -0.03162312
000160 97 93 0d 3c 57 7f 1d bd 12 63 2a bd ba 28 03 39
       0.008641145 -0.03845152 -0.041598387 0.00012508305
000170 06 6e 6f bc 55 64 25 3d 20 fb 37 3c 09 a5 4e 3d
       -0.014613634 0.040378887 0.011229306 0.05045036
000180 1e a9 84 3c 32 b6 84 bc 28 a2 29 3d ed df ac 3b
       0.016193923 -0.016200159 0.04141441 0.0052757175
000190 cb e3 5b 3c 84 c7 88 bc 8b dc 1d 3b 44 0c 24 bc
       0.013421009 -0.016696699 0.0024087753 -0.01001269
0001a0 3b 10 73 bb 16 e4 36 bd 16 c1 b7 38 3c ac 46 bd
       -0.0037088532 -0.044651113 8.762085e-05 -0.0485041
0001b0 0b 83 2f bc 2f 76 11 3d 96 21 29 bd 33 d1 25 bd
       -0.010712395 0.0355131 -0.041291796 -0.04048271
0001c0 6b 44 71 bc 97 e2 55 bc 13 1b 6b 3c 78 f1 84 3c
       -0.014725785 -0.0130545115 0.014349717 0.016228423
0001d0 f4 1c 24 3d 37 58 0b bd 58 84 1d 3b 67 2a 22 3d
       0.040066674 -0.034019675 0.0024035182 0.03959122
0001e0 5c 3f 6e 3d 53 5c 39 3b dc 66 dc bc b7 62 c5 3c
       0.058165893 0.002828379 -0.026904516 0.024094922
0001f0 8f 9b 22 3d 6e 7e 02 bd f6 e8 0a bd b2 f8 d2 3c
       0.039699133 -0.031858854 -0.033913575 0.025753353
000200 56 cf 9a bb 2c d2 64 bd 37 83 08 bd f2 e9 dc 3c
       -0.0047244234 -0.055864498 -0.03332826 0.026967023
000210 c0 78 85 bc 29 f3 3d 3d 73 2f 62 3d df c0 47 3c
       -0.01629293 0.046374474 0.055221032 0.01219198
000220 e2 69 7c ba 37 27 70 bc 20 81 09 3a 9f e8 6f 3c
       -0.0009628815 -0.014657787 0.00052453764 0.014642864
000230 ec 3c 28 bd 2b 2a 35 bc f1 71 3c bd 23 c2 1d 3d
       -0.041073725 -0.011057417 -0.0460071 0.03851522
000240 fa 7e 17 bd 45 3e 5e 3d 31 f7 73 bc 84 95 0a bd
       -0.03698633 0.054258604 -0.014890478 -0.033833995
000250 cb 18 e4 3c 9a 0d 10 3c 58 ea 25 3d 92 b2 c5 3c
       0.027843853 0.008792305 0.04050669 0.024133
000260 1c c6 6a bd b3 de 1e 3d 15 b5 0e bc af f5 c2 bc
       -0.057317838 0.0387866 -0.0087101655 -0.023798792
000270 2b 1e 26 3d dc 62 39 3d 6c 70 4e bd e6 83 50 bb
       0.040556114 0.045260295 -0.050400183 -0.00318169
000280 97 a9 47 3d ae 34 bb 3c 43 9b 4a 3d f1 fc a8 bc
       0.048745718 0.022852268 0.049464475 -0.020628424
000290 85 e2 06 bd c7 37 51 3d 0f 73 cc 3c c8 48 6e 3d
       -0.03293087 0.051078584 0.024957208 0.05817488
0002a0 f8 27 b9 bc 63 6d 12 bd b1 d2 4b bb c2 98 41 bd
       -0.022602066 -0.03574885 -0.0031100924 -0.04726482
0002b0 ef 95 05 3d ad 92 5c 3d a6 e5 bf 3c 91 b9 85 3b
       0.03261369 0.05385082 0.023424935 0.004080959
0002c0 05 8b 1b 3d 59 a4 ec bc d3 6d 83 3d d9 09 5f bd
       0.037974376 -0.02888696 0.06417432 -0.05445275
0002d0 ab 67 51 bd 95 5b 00 bc c3 86 61 3d c1 47 41 3c
       -0.051124256 -0.007834335 0.05506016 0.011796893
0002e0 1c 1c ef 3c 28 99 1e bd 59 4e dc 3c fe 1a 3d bb
       0.029188208 -0.03872028 0.026892828 -0.00288552
0002f0 22 93 d1 3c 09 a8 3b 3d 2f b1 e6 3c ee 5c f4 ba
       0.025582854 0.045814548 0.02816066 -0.0018643418
000300 2d 2b fe ba 54 a9 0c bd aa d3 9a bc d1 61 2d 3d
       -0.001939153 -0.03434117 -0.018899757 0.042329613
000310 9a 21 9b bc 40 58 27 3d 5e 69 b0 bc c7 37 39 bc
       -0.01893692 0.040855646 -0.021534618 -0.011304802
000320 5d 32 fd 3a 88 e0 5d bd 52 cf 27 ba 78 26 a2 bb
       0.0019317378 -0.054169208 -0.00064014376 -0.0049484335
000330 b3 89 74 bb ff 4d 2e bc f5 ba 4c 3d 40 8d 35 3d
       -0.003731352 -0.010638713 0.049982984 0.04432416
000340 39 5a 1e bd 9e 4d e6 3c dd 34 3c bd 64 a3 4d bd
       -0.03866026 0.028113183 -0.04594885 -0.05020465
000350 52 18 94 3c a4 f0 0d 3a f0 bf df bc aa b0 68 bd
       0.018078003 0.00054145814 -0.027313203 -0.056809105
000360 1d c7 ae bc b8 f0 b0 3c a5 3a 52 bd fb fa 62 bd
       -0.021335179 0.021599159 -0.05132546 -0.055415135
000370 55 7e 28 3c c7 52 27 bd 4c 0b 4a bd 19 8e ac bc
       0.010284026 -0.040850427 -0.04932718 -0.021063851
000380 b0 7b 18 bc c0 ce 4e bd 8d f6 14 bd c1 83 aa 3b
       -0.009306833 -0.05049014 -0.03636794 0.0052036946
000390 fc 0b 5f bd c9 da ec bb b1 23 11 bd b4 db 1b bd
       -0.05445479 -0.0072282297 -0.03543443 -0.038051322
0003a0 c2 5d dc 3c d0 06 22 bd 64 03 38 bd 58 11 0d 3d
       0.026900176 -0.03955728 -0.04492511 0.03444037
0003b0 c5 94 64 3c 53 89 6a 3d 9c 52 22 bc 01 f2 ba bc
       0.013951485 0.05725987 -0.009907391 -0.022820475
0003c0 1a 20 b4 39 94 e2 a7 3b 6c 15 45 3d 30 a7 6e bd
       0.00034356193 0.0051234458 0.048116133 -0.05826491
0003d0 97 f0 7d bb d8 21 f1 3c 69 c0 e6 bc 3b c1 c5 bc
       -0.003874814 0.029435083 -0.02816792 -0.024139991
0003e0 8c 6b 13 3d 70 e5 50 bd 4c 18 ab 3c e6 14 25 bd
       0.035991237 -0.05100006 0.02088561 -0.040303133
0003f0 46 14 f7 3c bf 81 4a bd af d4 28 3d 17 e3 5c bd
       0.030161034 -0.04944014 0.041218456 -0.053927507

conv2.bias f4 [64]
000000 f2 e7 b1 3b 8c 26 68 3d 75 93 76 bd b7 2b 44 3c
       0.0054292614 0.056677386 -0.06019922 0.011973313
000010 f6 60 92 3c 05 ae 4c bd b7 64 82 3c 8b 56 66 bd
       0.0178685 -0.049970645 0.015917165 -0.056234878
000020 24 fb 4b bd 18 1b 7e 3d 87 c6 42 3d 71 d3 6b 3d
       -0.049800053 0.062037557 0.04755261 0.057574693
000030 92 35 93 3d b5 72 33 bc 68 21 02 3c 9f 48 76 bc
       0.07187952 -0.010952641 0.007942535 -0.015031963
000040 c8 c0 c3 bb fa 06 24 bd 27 fb 73 3a 31 56 aa 3d
       -0.005973909 -0.040045716 0.0009307139 0.08317221
000050 69 e7 ee bc c0 66 20 3c 31 9b fc 3c ea eb e7 bc
       -0.02916308 0.0097901225 0.03083572 -0.028310735
000060 a6 d8 23 3d 3c 20 22 3d ef d7 83 bd f3 a7 54 bd
       0.040001534 0.039581522 -0.064376704 -0.05191798
000070 9c 52 87 3d 8f 3d 65 3d ed 89 ee 3c 94 eb a5 3b
       0.06607553 0.05596691 0.029118503 0.0050634835
000080 44 79 bd 3c 0c cb 12 3d 76 96 3f bc 5b a6 49 bd
       0.023129113 0.03583817 -0.0116935875 -0.049230915
000090 bc 13 27 bd 83 d5 9b 3c 1a af c1 bc 5b 5f 83 3c
       -0.040790305 0.019022709 -0.023643065 0.01603668
0000a0 f2 ff 7f bd d2 18 a2 bd f3 fc 31 3a d2 ca db bc
       -0.062499948 -0.0791489 0.00067897065 -0.02683011
0000b0 fd 75 ba 3c 1b 60 96 3d 2f a8 e2 bc ec 63 4a 3d
       0.02276134 0.073425494 -0.027668087 0.0494117
0000c0 7b 21 7c bc 4e 52 b8 bd ea e5 db bc 8f 37 c8 bc
       -0.015388842 -0.090000734 -0.02684303 -0.024440555
0000d0 d1 52 de bb f1 71 12 bd 00 11 da 3b 05 21 b7 3d
       -0.006784775 -0.035753194 0.0066548586 0.08941845
0000e0 eb 93 21 3d d9 94 c9 3c 6b 6f d6 bd 2a e4 d8 3b
       0.039447706 0.024607109 -0.1047047 0.006618996
0000f0 13 4f 3b 3d d4 6d 25 3d ca c0 d2 bc 15 ce 82 3d
       0.045729708 0.040387943 -0.025726695 0.06386963

fc.weight f4 [10, 12544]
000000 2a 8c 9f 3b 76 50 d3 b9 c9 bf c1 bb 62 71 d9 3b
       0.004869004 -0.00040305004 -0.005912755 0.0066358307
000010 36 d5 a5 3b 68 b5 df bb 63 75 ca 3b 77 b9 17 bb
       0.005060817 -0.006827045 0.0061785444 -0.0023151317
000020 a1 d2 23 bc b4 cd 40 ba 4a 05 83 3b 77 5d 94 3a
       -0.009998948 -0.0007354871 0.0039984332 0.0011319359
000030 e4 ca 86 bb 97 54 a9 bb 5f da 80 3b 3f fe 4d 3a
       -0.004113542 -0.0051675546 0.003932282 0.0007858015
000040 bc 9c 8f 3b 4a 42 96 3b ba 5e 0c 3c 3d 37 1e bb
       0.004382698 0.004585539 0.008567506 -0.0024141811
000050 1b b5 d2 3a 17 07 28 bb 5f 7e a1 ba a3 30 a2 3b
       0.0016075702 -0.0025638992 -0.0012320987 0.0049496456
000060 b8 38 d0 bb 08 fc ad 3b 54 ae ad bb d5 b8 ed 3b
       -0.0063544177 0.0053095855 -0.0053003225 0.0072546997
000070 c6 9d 1d bb d0 1e e6 3b db 6b 5e bb 2a f7 18 3b
       -0.002405034 0.007022716 -0.0033938799 0.002334068
000080 71 d9 0f 3c e1 12 91 ba 45 91 c2 b9 b8 86 0e bb
       0.008779869 -0.0011068248 -0.00037110798 -0.002174778
000090 93 97 f4 3b 56 94 c0 3b 98 fb 7f ba 42 1e 0b bb
       0.007464358 0.005877058 -0.00097649684 -0.0021227752
0000a0 30 5c 01 3c fd f3 c5 3b 5c 42 02 3c 80 a4 e0 bb
       0.007895514 0.0060410486 0.007950392 -0.0068555474
0000b0 c9 5f 75 bb 63 de 8a bb 8b 16 8f bb b9 2f d1 39
       -0.0037441126 -0.0042379363 -0.004366701 0.00039899143
0000c0 2b 62 ea 3a 66 2b 69 bb 23 26 82 bb 46 59 4d ba
       0.001788204 -0.0035578846 -0.0039718314 -0.0007833432
0000d0 0a 5d 42 bb 7e df 04 bc d0 22 c3 3b af d3 2a bb
       -0.0029657506 -0.008109925 0.0059550777 -0.0026066115
0000e0 73 ec 06 3b 08 e8 a1 3b a1 6b b9 bb 74 7a 23 3a
       0.0020587712 0.0049409904 -0.0056585823 0.00062362035
0000f0 1a 2e ec bb c6 34 cc 3b 53 a7 a4 bb 95 25 b5 3b
       -0.007207644 0.006231877 -0.0050248294 0.005528162
000100 33 be ec ba a6 b6 be bb 23 c9 cb 3a a9 7b 1b bc
       -0.0018062055 -0.0058201132 0.0015547614 -0.009489932
000110 b4 dc 73 bb fb 4a 64 ba f1 4d 1a 3c 91 b4 95 bb
       -0.0037210407 -0.0008708683 0.009417997 -0.0045686443
000120 f7 b8 59 3b fa 84 9d 3b a3 68 ff bb e9 a0 10 bc
       0.003322182 0.004807112 -0.007794456 -0.0088274265
000130 04 8c 03 bc 15 c0 ba bb 65 76 39 3b 4a b3 fa bb
       -0.008028988 -0.0056991675 0.0028299328 -0.0076507675
000140 dd b9 bc 3b fa 45 e3 bb 48 32 12 3c 9e c5 21 3b
       0.0057594613 -0.006935832 0.008923121 0.002468444
000150 90 c3 5a 3a f4 a0 dd bb 84 1e 0d bc a1 a0 28 bc
       0.0008345181 -0.006763572 -0.0086132325 -0.010292203
000160 6e bd 2a bc 00 fd 99 bb 06 00 3f 3b 3e e3 2d bc
       -0.01042114 -0.0046993494 0.00291443 -0.010613261
000170 c9 78 5b 3b c7 70 59 bb 24 0b ea b9 31 49 97 bb
       0.0033488742 -0.0033178793 -0.00044640258 -0.0046168794
000180 76 27 c3 bb 47 39 57 3b be ed 03 3c 68 ae 42 ba
       -0.005955632 0.0032840536 0.008052288 -0.0007426501
000190 6d 90 66 3a fc 98 b5 3b 3d 04 e9 b9 0e de 08 bc
       0.0008795325 0.005541919 -0.0004444438 -0.008353723
0001a0 c4 a4 59 b9 c0 89 10 bc aa a5 b6 3b 0a 42 26 bb
       -0.00020756113 -0.008821905 0.005573948 -0.0025368952
0001b0 65 7d 00 ba 3b 68 5c bb f2 6e 90 3b c4 e3 29 3b
       -0.0004901498 -0.0033631462 0.004407757 0.0025923112
0001c0 22 71 b6 3b cc e1 65 bb fc 2c 8d 3a fa 11 6b 3b
       0.0055676857 -0.0035077212 0.0010770853 0.003586887
0001d0 00 a9 6b 3b c9 9c bf bb 01 63 88 3b d4 b5 17 bc
       0.0035958886 -0.0058475477 0.004162193 -0.00925966
0001e0 c4 cd 59 3b 88 f4 09 bc 21 db 2e bc e7 3c 9b 3b
       0.0033234218 -0.008420117 -0.010672362 0.0047374847
0001f0 a4 cb 33 bb ae ac c2 bb 85 68 aa 3b f7 27 dd 3b
       -0.0027434612 -0.005940995 0.005200448 0.006749149
000200 2c 75 15 bb 92 a5 14 bc d6 9a 9c bb a6 1c d4 bb
       -0.0022805436 -0.009072678 -0.0047792 -0.0064731417
000210 7b 41 01 ba e9 78 35 bc f9 29 1f bc 9d 3e 58 bc
       -0.0004930717 -0.0110761905 -0.009714597 -0.013198522
000220 79 94 53 bb 21 c2 0d 3c 5f f9 52 3b 55 37 81 b9
       -0.0032284542 0.008652241 0.0032192094 -0.00024646023
000230 d4 34 7a 3b 81 9d 06 bc af 85 9d bb 1b fc 63 3b
       0.003817846 -0.008216263 -0.004807196 0.0034787718
000240 2c e6 22 bc f4 ff 45 bc 47 6c d7 bb 09 0f 2a bc
       -0.009942573 -0.01208495 -0.006574187 -0.010379561
000250 a7 20 8e bb a6 58 76 3b 4e 2c 2e bb b2 75 b2 3a
       -0.0043373886 0.003758946 -0.00265767 0.0013615398
000260 2f d7 44 39 ca 6b be bb 6f 07 a5 bb 37 a1 f2 ba
       0.00018772179 -0.0058111893 -0.0050362865 -0.001851118
000270 a2 fc b8 3b fb f6 1c bc c6 f9 51 3b d7 6a 05 bc
       0.0056453506 -0.009580369 0.0032039746 -0.008143148
000280 eb ae 46 bc 38 7f 19 bb d9 e8 5f 3b 08 24 e9 ba
       -0.012126665 -0.0023421776 0.0034165888 -0.0017787227
000290 5a 44 44 3b 0b fa 4e 3b f3 e8 03 bb 9e 39 2c ba
       0.0029947967 0.0031582143 -0.0020127862 -0.0006569865
0002a0 a0 ac 93 3b bb ea 28 bb 02 04 73 3a 12 a0 89 ba
       0.0045066625 -0.0025774676 0.00092703116 -0.0010499975
0002b0 36 98 40 bc 00 a6 2c 3b e6 39 3a bc 53 fb b4 ba
       -0.01175504 0.002634406 -0.011366343 -0.0013807811
0002c0 45 eb 2d bc 39 79 b0 bb 66 48 93 3a 37 88 83 3a
       -0.010615175 -0.0053855446 0.0011236786 0.0010035102
0002d0 24 56 d4 3b df f1 7d bb 8c 4d bb 3a ab f6 48 3b
       0.0064799953 -0.0038748903 0.0014290079 0.0030664604
0002e0 c9 8b 17 bc ff 8f 16 bc 45 b2 95 3a 91 0b 16 bb
       -0.009249636 -0.009189605 0.0011420926 -0.0022895078
0002f0 02 42 91 bb a6 25 dd bb 1c 3f 65 b8 eb 9f 4b 3b
       -0.0044329176 -0.006748873 -5.465663e-05 0.003107066
000300 9d 6b bb 3b 48 48 7a 3b 07 26 05 3b a8 07 2f bc
       0.0057196156 0.0038190056 0.0020316856 -0.010682978
000310 53 09 da 3a 7f 94 37 bb 45 14 be 3b 54 32 05 bc
       0.0016634859 -0.0028012095 0.005800756 -0.008129675
000320 9e c2 94 3a 1c 80 0e bc a7 aa 36 ba 3e 1d b5 bb
       0.0011349504 -0.008697536 -0.0006968178 -0.0055271676
000330 33 d7 8d ba 5f 30 69 bc f9 38 de ba f1 8c 17 bc
       -0.0010821581 -0.014232724 -0.0016954235 -0.009249912
000340 ce 9e cd bb ea 7e 3c bb b9 dc 58 bc d3 64 0a bc
       -0.0062750345 -0.002876217 -0.013236218 -0.00844689
000350 cc c3 2a bb 4a 6c 62 bb 8e e4 9d bb 13 cd db ba
       -0.0026056645 -0.0034549409 -0.0048185056 -0.0016769491
000360 73 58 98 bc 2c 67 98 ba 47 26 54 bc 96 6d 41 bc
       -0.018596863 -0.0011627427 -0.012948579 -0.0118059125
000370 8e dc a1 bb f9 00 de bb c0 31 ed 3b 1c ff 46 3c
       -0.0049396222 -0.0067750183 0.0072385967 0.012145784
000380 47 0d 4e bb 89 5f 19 bc 08 e3 02 bc b3 9e 4d bb
       -0.003144102 -0.009361156 -0.007988699 -0.003137511
000390 9b 0b 98 3b 39 a1 24 3c c4 14 1d 3a 4c bb db 3b
       0.0046400554 0.010048204 0.0005992169 0.006705677
0003a0 bf 80 11 bc 72 a7 95 bb 62 ad f3 bb 12 14 b0 bb
       -0.008880793 -0.00456708 -0.0074364403 -0.0053734863
0003b0 f9 d3 91 bb a8 49 04 3c 4e 0e 42 3b 78 99 fd bb
       -0.004450318 0.008074202 0.0029610577 -0.007739242
0003c0 c2 dc 4f bc f5 d6 73 bc 26 1a cd bb 76 c8 d2 3b
       -0.01268691 -0.014882793 -0.0062592207 0.006432588
0003d0 a1 d2 9d bb e6 b1 b8 39 09 a7 5f bb 28 70 54 b8
       -0.0048163687 0.0003522776 -0.003412666 -5.0649192e-05
0003e0 ba 3f 4a bc 20 8c 8c 3b 6d 91 61 3c a1 7b 45 3c
       -0.012344295 0.004289165 0.013767582 0.012053401
0003f0 8a 16 54 b8 32 11 01 3b 86 66 db bb a0 d2 f6 bb
       -5.056573e-05 0.0019694087 -0.0066955714 -0.0075324327

fc.bias f4 [10]
000000 b6 ec c2 bc 44 b4 f1 bc 27 23 25 ba b4 64 6f 3c
       -0.023794513 -0.029504903 -0.00062994886 0.014611412
000010 bd a6 a7 bb 97 26 03 3d 4d af 93 3c d1 e0 f8 3c
       -0.0051163123 0.032019224 0.018027926 0.030380638
000020 87 bc 40 bc 89 b5 37 bc
       -0.011763698 -0.011212715
